tools/quantization_tool/examples/pytorch_to_onnx/mnist_pytorch.pt (torch_old, 438615 bytes, 6 tensors)

fc1.weight f4 [128, 784]
000000 c1 81 84 bc a2 62 bd 3c 9d e0 47 3b e6 cc a4 bc
       -0.016175153 0.02311832 0.003049887 -0.020117234
000010 b9 6d fc bb f4 29 c3 bc 3c 61 ac 3c 4f c5 7d bc
       -0.0077035096 -0.023823716 0.021042459 -0.015488937
000020 24 a7 98 bc 20 66 c9 3c 30 21 b5 3c 4f c7 e2 bb
       -0.018634386 0.02458483 0.022110552 -0.006920732
000030 71 11 82 3b 85 e2 d7 bb d7 da 26 bb c2 ce 04 bd
       0.0039693643 -0.0065882825 -0.0025460029 -0.032423742
000040 da 15 07 3c b4 b5 06 bd e6 3d cd 3c fb 61 0d 3d
       0.008244956 -0.03288813 0.02505393 0.03451727
000050 8e f4 b4 3c 92 1e a6 39 20 7b c4 bc dc 02 a8 bc
       0.022089269 0.00031684764 -0.023984492 -0.020509176
000060 a8 ba 62 3b 30 fd 5e bc 44 cb b9 bc a7 a0 17 bb
       0.003459612 -0.013610169 -0.022679932 -0.0023136528
000070 94 cf ab 3c 65 c8 6c bc 74 4b bd bc b2 44 d7 bc
       0.020973004 -0.014452075 -0.023107268 -0.026277874
000080 a0 1f 09 bd a3 16 14 bd cb 8d 4a bc 79 47 b3 bc
       -0.033477426 -0.0361544 -0.012362908 -0.021884667
000090 65 2c be 3b 98 93 b9 3c c0 38 bd bc 67 06 d1 bc
       0.005803632 0.022653386 -0.02309835 -0.025515748
0000a0 3f 7c 11 3b c7 33 cf bc 14 46 9a bc b7 9b 26 3c
       0.00221993 -0.025293244 -0.018832244 0.010168961
0000b0 a8 b0 c7 3c ad 23 b0 bc ab 59 4f 3c 6e c6 eb 3c
       0.024376228 -0.021501387 0.012655656 0.028781142
0000c0 b8 6b b4 3c a4 a9 64 bc ed 78 78 3c 10 23 f6 3c
       0.02202402 -0.013956461 0.01516555 0.030046016
0000d0 09 81 f6 bc a2 cd 4a 3c b1 c8 01 bd 0f aa e6 bc
       -0.030090826 0.012378128 -0.031685535 -0.028157262
0000e0 30 2f 4c bc f8 7a 9a bc a7 f2 14 bc dc ee 7a 3a
       -0.012462422 -0.018857464 -0.009091056 0.0009572336
0000f0 ad de c9 3c 40 f2 af bc fb 02 db 3c 12 10 aa bb
       0.024642313 -0.021477818 0.02673482 -0.005189904
000100 ca 73 25 3d 42 fd 74 3c 93 95 fd b9 fd 05 c0 bc
       0.04039363 0.0149529595 -0.00048367362 -0.023440355
000110 99 40 5b bb b8 9e 21 3d a5 65 ad bc 50 eb 11 bd
       -0.0033455251 0.039458007 -0.021166632 -0.035624802
000120 66 d7 f6 bc 57 b0 5f 3c 65 e2 2b bb be e5 09 bc
       -0.030132007 0.013652883 -0.002622747 -0.008416591
000130 d9 25 e4 3c ab 36 61 3c 18 89 be bc dd 7d 84 bc
       0.027850078 0.013745944 -0.02325873 -0.016173298
000140 2a 31 42 3c ae 0c 84 3c 46 0c cb b8 f9 80 f0 bb
       0.011852542 0.016119327 -9.6820804e-05 -0.0073395935
000150 ca f2 5e bc a6 20 f1 3c b1 6e b4 bc b8 63 98 3b
       -0.01360769 0.029434513 -0.022025438 0.0046505593
000160 a9 1b 9e bb 3a 9a a0 bc 01 ef 0d bc e4 46 56 bc
       -0.0048250747 -0.019604791 -0.00866294 -0.013078425
000170 ed 21 b1 bc b5 12 16 3d 52 34 7e 3d d1 b2 82 3d
       -0.021622622 0.036638934 0.062061615 0.06381763
000180 33 47 d7 bc ca f5 87 3d 56 af 48 3c 1e dd 81 3c
       -0.026279068 0.066386774 0.012248835 0.015852507
000190 c1 79 2f 3c fe 59 97 3c 2a 08 1d bd a2 7c 6f bd
       0.010710181 0.018475529 -0.038337864 -0.05846847
0001a0 3f 86 86 bd 11 b8 63 bd 0d e5 81 bc c6 26 e3 bc
       -0.06568574 -0.05559546 -0.01585629 -0.02772845
0001b0 f7 c7 2e 3c 14 2e bf bc dc 73 b0 3c 71 0a a6 3c
       0.0106677925 -0.023337401 0.021539621 0.02026865
0001c0 2a 82 9a bc 97 51 56 3b fa 9b c6 3b 70 87 91 bc
       -0.018860895 0.003270244 0.0060610743 -0.017764777
0001d0 c8 35 52 bb a4 f4 bf 3b 82 5f c8 3c d1 c3 58 bb
       -0.0032075513 0.005858021 0.024459604 -0.00330757
0001e0 cf 89 1d 3c e1 41 85 3d 82 01 79 3d 6b 68 72 3d
       0.009615376 0.06506706 0.060792454 0.059181612
0001f0 e8 28 7b 3d 4e 5c 8e 3d 74 09 da 3b b7 e6 98 bc
       0.061318308 0.069511995 0.006653959 -0.0186647
000200 d3 e4 33 3b a2 a5 39 3d a2 e9 60 bc ef ca 6c bc
       0.0027449622 0.045323975 -0.013727577 -0.01445268
000210 6f be a2 bc b0 05 10 bd 7b c9 14 3b 89 91 83 bb
       -0.019866196 -0.035161674 0.00227031 -0.004015152
000220 13 57 fa bb 46 3d cb bc ce e7 02 3c ba a0 0f bd
       -0.0076397746 -0.02480949 0.007989837 -0.03506539
000230 94 32 0c bd 6e 1c 0c 3d 50 2d 0c 3c 36 b2 c4 bc
       -0.034227923 0.0342068 0.008555725 -0.024010759
000240 17 a2 3c 3c 47 97 2f bd 79 23 10 3c 7c e3 2f bd
       0.011513255 -0.04286888 0.00879752 -0.042941555
000250 85 9d b4 3c 4c e5 ab bc e9 e0 9e 3b 14 30 05 3d
       0.022047767 -0.02098336 0.0048485887 0.032516554
000260 a5 06 4c 3d a0 4b 0c ba 95 9a 32 3b dc f5 62 bd
       0.049811024 -0.0005351845 0.0027252783 -0.05541025
000270 79 94 39 bc 7c 12 9a 3a c1 4f 6b bc 70 61 7a 3c
       -0.011326903 0.0011754776 -0.0143622765 0.01528202
000280 7b a4 35 bd 69 7b 44 bc 19 53 cf bb b2 35 da 3b
       -0.044346314 -0.011992314 -0.0063270447 0.006659233
000290 95 4d 93 bc e1 85 b8 3c d7 9a a1 3b bf d0 92 b9
       -0.01798133 0.022524776 0.0049317884 -0.00028002818
0002a0 a7 7b 28 ba c2 5b 10 ba 7f f2 a3 bc a4 9a d2 bc
       -0.0006427117 -0.0005506837 -0.020013092 -0.025708504
0002b0 b3 ee f5 bc 6f ea b9 bb f1 87 e7 bc 82 02 5d 38
       -0.030021047 -0.0056736986 -0.028263064 5.269284e-05
0002c0 98 5d 79 bd c9 56 8b bd 5b dd 41 bd f5 0d 69 bd
       -0.060880274 -0.06803662 -0.04733024 -0.056898076
0002d0 28 f0 8d bd 65 57 3c bd 11 e5 58 bd 46 30 04 bd
       -0.06930572 -0.045981783 -0.05295283 -0.0322726
0002e0 1d a2 42 bd 57 40 a5 ba 3c b7 83 bc 66 5f 34 bd
       -0.047517885 -0.0012607676 -0.016078584 -0.04403629
0002f0 ed 91 2e bd 82 2a 16 bd cb eb 3c bd 1c 47 b5 bc
       -0.042619634 -0.036661632 -0.046123307 -0.022128634
000300 28 77 30 bd 13 1d 20 bd 88 66 05 bd 2c 6a 6f bc
       -0.043082386 -0.039090227 -0.032568485 -0.014612716
000310 27 7f 08 bc 87 80 52 3c 80 96 ce 3c af 63 83 3c
       -0.008331097 0.012848026 0.025218248 0.016038744
000320 82 52 37 bd 9a 68 aa bc 73 d3 61 3a 12 f5 5e 3c
       -0.04475642 -0.020801831 0.0008614577 0.013608234
000330 d8 c4 74 bd 7f e6 73 bd 37 e0 74 bd 09 ca 05 3c
       -0.059758037 -0.05954599 -0.05978414 0.008165845
000340 13 5e 2f bc 01 69 b3 3b a9 77 80 3c d2 7b ae 3b
       -0.010703581 0.005475164 0.015682058 0.005324819
000350 1a b7 4b bc 5e 80 25 bd f0 e3 2e bd 34 89 58 bd
       -0.0124337915 -0.040405624 -0.042697847 -0.052865222
000360 f5 de 91 bd fb df c9 bb f9 59 41 bb 2f 50 f0 bc
       -0.07122604 -0.0061607338 -0.002950309 -0.02933511
000370 ee 60 74 bd 16 70 a6 ba 29 a0 4b bc 53 36 e2 3c
       -0.05966275 -0.0012698199 -0.012428322 0.027613794
000380 9d 89 f2 3c 9f c1 0e 3d a6 97 33 3c a8 a9 3d bd
       0.029606635 0.03485262 0.010961449 -0.046304375
000390 f8 34 8e bd a8 96 64 bd 8a 9f 01 bc 2b 6d 7e bd
       -0.06943697 -0.05580774 -0.007911572 -0.06211583
0003a0 43 f6 b6 bd 55 b1 36 bd 60 73 16 bd 67 84 c3 3b
       -0.089336894 -0.04460271 -0.036731124 0.0059667113
0003b0 78 1b 12 3c 9f 18 16 3c 9e ac 1a 3a 8a 24 e6 3c
       0.008917682 0.009161144 0.0005900356 0.028093595
0003c0 40 3d d1 3c 6c ab c7 bc 4a 19 76 bd bd ba ab bc
       0.025541902 -0.024373733 -0.06008271 -0.020963067
0003d0 9a 03 2c bb 61 b3 ef ba cb ed b4 bc c3 b8 07 bd
       -0.0026247264 -0.0018287712 -0.022086045 -0.033135187
0003e0 42 8a 48 bd 8e 85 f4 bc fb 47 a7 bc 7f 2d f6 3c
       -0.048959978 -0.02984884 -0.020420065 0.030050991
0003f0 95 b6 dd 3c 4e 1a 79 bb d5 a6 c4 bc d7 e4 95 3c
       0.027064601 -0.0038010064 -0.024005333 0.018297596

fc1.bias f4 [128]
000000 63 f7 40 3d b3 0f ac bc ef 12 85 3c 7c 59 b3 bc
       0.047110926 -0.02100358 0.01624438 -0.021893255
000010 b3 b9 95 bc 92 c5 33 bd 55 d9 a9 bc 6c 84 50 3c
       -0.018277025 -0.04388959 -0.020733515 0.012726884
000020 36 45 08 bc 8e be 08 bc 16 88 6d bc c6 e6 af bc
       -0.008317282 -0.008346213 -0.014497777 -0.021472346
000030 f2 cc f9 bc 54 cb 0d 3d 36 05 07 3d 82 b5 1d bd
       -0.030493233 0.034617737 0.032963954 -0.038503177
000040 f1 d8 01 3c 70 c1 a1 bc 3f fd 05 bd 32 07 d6 3c
       0.007925258 -0.019745559 -0.032712217 0.026126478
000050 5d 7b d8 3c c2 33 21 3a f8 89 54 3c 58 df 0e bd
       0.026426012 0.0006149375 0.012972347 -0.034880966
000060 28 b9 07 3d 4b 73 c1 bb e0 d9 62 3c 48 38 47 bc
       0.033135563 -0.0059036366 0.013845891 -0.012159415
000070 55 3e ff ba 1f 09 2c 3c e0 7a 0f 3c 80 97 9e bc
       -0.0019473532 0.0105002215 0.008757323 -0.01935935
000080 2a 8e 83 3c 6e aa 17 3d 3e 2c 0c 3d c1 cf 70 3c
       0.016059 0.03702777 0.03422188 0.01469797
000090 9b d6 d9 3b 88 3b 02 bd 76 38 cd 3c ad 06 11 bd
       0.0066478974 -0.031795055 0.025051337 -0.035406757
0000a0 a0 e9 c7 3c 4f 1e d4 bc 7f bb 19 3d 2d 97 c4 3c
       0.024403393 -0.025893359 0.037532326 0.023997867
0000b0 71 c7 d6 bc d5 b4 b5 3c a5 8e 47 3b 83 1f a6 3b
       -0.026218148 0.022180954 0.0030450013 0.0050696745
0000c0 d4 da 50 3d 2d 53 f4 bb 8a 72 05 bc 40 07 21 bd
       0.05098994 -0.0074562044 -0.008144984 -0.039313555
0000d0 55 9c 87 bc 2a bb db bc 11 1f d1 bc 8e d3 b4 bc
       -0.016554037 -0.026822645 -0.025527509 -0.022073533
0000e0 fe 31 6e 3c a9 da 84 3c 46 8d 5e 3c 57 83 3c bb
       0.014538286 0.016217547 0.013583487 -0.0028764808
0000f0 e9 27 06 3d a9 c7 a4 bc 41 84 2b bd af 33 ce bc
       0.032752905 -0.020114737 -0.041874174 -0.025171129
000100 05 6e 1d 3d e3 52 36 bd 2d 3c 51 3c 04 c8 03 bd
       0.038435 -0.04451264 0.012770695 -0.03217317
000110 49 f4 47 bc b8 82 4f 3c a2 d4 46 3c 0d be 8d bc
       -0.012204238 0.012665443 0.012135657 -0.017302537
000120 08 7d 99 3c 5e ab b3 3c 56 da 95 bc c9 fb a4 3c
       0.018736377 0.0219323 -0.018292587 0.020139592
000130 22 ab 27 3d 6b 55 0e 3d d8 20 f3 bb cf a2 a7 3b
       0.04093469 0.03474943 -0.0074196868 0.005115844
000140 be 17 e1 bc 4c 84 6f bc 5c 2b a9 bc f8 df e5 3c
       -0.027477141 -0.014618944 -0.020650558 0.028060898
000150 db 77 9c bb af 9b 64 3c 4e bc c9 bc 48 77 6b bb
       -0.00477503 0.0139531335 -0.024625923 -0.0035929251
000160 35 a4 07 3d 95 22 02 3c 2e ac 3e 3c 10 9e db 3c
       0.033115584 0.007942815 0.0116377305 0.026808769
000170 7a a7 2c 3d 52 1f 4d bd 48 60 db bc a1 20 1b bc
       0.042151906 -0.050078698 -0.026779309 -0.009468229
000180 86 4b 5e bc 75 5f 61 bd 3a 37 05 bd 25 bd b4 39
       -0.013567811 -0.055022676 -0.03252337 0.000344732
000190 a6 77 03 3d 22 ba eb bc 0d 37 ea 3b 99 1c fb 3c
       0.032096528 -0.028775278 0.007147676 0.030653285
0001a0 94 fd db 3a c8 63 c8 3c 32 01 f9 3c 09 c4 1c bc
       0.0016783946 0.024461642 0.030396078 -0.009568223
0001b0 68 3b 95 3c 7a c6 00 bb b4 43 e8 bc 87 39 aa bc
       0.018216804 -0.0019649551 -0.028352596 -0.020779384
0001c0 11 9c d9 bc 5c 5a 92 3c 36 ac 8a 3c c5 8c 35 bc
       -0.026563676 0.017865352 0.01692782 -0.011080925
0001d0 a8 90 f8 bb be d0 a4 3c bc 15 2d 3c 38 91 d3 3b
       -0.0075856037 0.020119067 0.010564264 0.0064565204
0001e0 39 82 da bc 07 aa a6 bc ce c2 a6 bc b5 17 a4 b9
       -0.026673423 -0.020344747 -0.020356562 -0.0003129818
0001f0 79 54 68 3c ec 33 91 bc 00 d6 4b 3d 61 6b 9e 3c
       0.014180296 -0.017724954 0.049764633 0.019338312

fc2.weight f4 [64, 128]
000000 7c 50 73 bd fa 01 08 3d 86 09 5a 3e 65 d8 c4 bc
       -0.059402928 0.03320501 0.21292695 -0.024028966
000010 e8 ef 43 3d cf c7 12 3d 2b 53 52 39 28 d1 1e bd
       0.047836214 0.035835084 0.00020058143 -0.038773686
000020 b4 37 74 3c 09 b6 e7 3d 4d 6b e2 bd e2 07 9d 3d
       0.014905859 0.11314017 -0.11055622 0.07667519
000030 46 83 b3 bd 80 a5 de bd dc 92 9b 3d 55 04 8b 3d
       -0.08765273 -0.1087141 0.075963706 0.06787936
000040 ec 1e f7 3b e6 8d 96 bc 4b 90 c6 bc 3b e4 75 bd
       0.007541528 -0.01837821 -0.024238726 -0.06003211
000050 6e 6c 97 3d 5b d0 12 bd 60 94 6b bd 2c e9 b2 bc
       0.07393728 -0.035843235 -0.05751455 -0.0218397
000060 a5 76 61 bd bc c4 a4 3d 3e 1d b7 3d 0b ee d8 bd
       -0.05504479 0.080453366 0.089411244 -0.10592278
000070 70 62 c0 bc be f9 ac bd b9 e5 99 3d 92 9b cb bc
       -0.023484439 -0.08446072 0.07514519 -0.024854455
000080 1f 74 dd 3d f1 eb 7c 3d 1d 50 9b 3d b3 73 9c 3d
       0.10813164 0.06174845 0.0758364 0.076392554
000090 2a 54 4c 3d 35 7b 1a 3d 98 ac 78 be c9 bd a4 3c
       0.049884953 0.037715156 -0.2428459 0.020110028
0000a0 51 1f a7 bd 22 49 21 3d 6e 7d 04 3e ea aa 56 bd
       -0.0816027 0.039376386 0.12938473 -0.05240909
0000b0 21 97 64 3d 35 6f cf bd 57 d3 78 bd 2c a7 9f bc
       0.05580819 -0.10128633 -0.060748424 -0.019488893
0000c0 50 fb 83 3d ea 44 5f bc 83 2d e3 3d f7 77 93 3d
       0.064444184 -0.01362727 0.11092665 0.07200616
0000d0 13 06 1e 3d d7 fa d5 bc 68 b4 9e 3d ad 97 a7 3d
       0.03858001 -0.026120586 0.077492535 0.08183227
0000e0 32 2e df 3d 59 b9 13 be f6 4d ee 3d 37 12 b3 bd
       0.10897483 -0.14426173 0.116359636 -0.087437086
0000f0 db f0 8d 3d 84 46 5b 3d 4d 5b f6 3b f8 47 30 bd
       0.06930705 0.053534046 0.007518208 -0.043037385
000100 a2 2d 35 bd 27 73 c2 bd 54 60 18 be af 50 19 3e
       -0.044232972 -0.0949462 -0.14880496 0.14972185
000110 9d 8a 8d 3d cf c5 80 3c f0 78 f9 bd 30 8f 49 3e
       0.06911204 0.015719322 -0.1218127 0.19683528
000120 58 d8 04 be b6 48 a1 3d e2 a6 5a bc 84 e8 59 3d
       -0.12973154 0.07875197 -0.013345452 0.05320026
000130 13 ac 85 bd af 5e 30 3d 75 cb 0d 3c fb 1a f3 3c
       -0.06526961 0.043059047 0.008654465 0.029675951
000140 e3 46 7b be 3a a5 60 bd 17 2c 3e be 9e 64 03 3c
       -0.2453876 -0.054845072 -0.18571506 0.0080195945
000150 33 c2 1a be 06 90 56 be 3c 4b 81 3d 9d 10 2d be
       -0.15113144 -0.20953378 0.06313178 -0.16900869
000160 74 5f 38 3e da c1 27 3d c5 4a d5 3d 3e e1 a0 3d
       0.18005162 0.040956356 0.10414652 0.078554615
000170 48 2b 77 3c 64 1f 0f 3d c3 5f 1d 3e 6b d2 0f 3e
       0.015086003 0.034942046 0.15368561 0.14045112
000180 4e a9 e9 3d 71 6a fc bc 2d dc 9a bd 0a 36 fe bd
       0.114092454 -0.030812474 -0.075615264 -0.12412651
000190 93 c6 48 3c 1c f7 1d bd 3e fb 69 3d 37 6f cd bb
       0.012254375 -0.03856574 0.05712437 -0.0062693614
0001a0 ea 7f 04 bd e3 ab 2a bd c4 bd 26 3d 22 60 06 be
       -0.03234855 -0.04166783 0.04070832 -0.1312261
0001b0 dc de 65 bd 04 55 05 3e 27 d2 b1 bc 45 80 c6 bc
       -0.05612074 0.13020712 -0.021706654 -0.024231086
0001c0 f7 ec 16 3c 5d 6e a4 bd 28 a0 99 bc 7e a0 81 bd
       0.00921177 -0.080288626 -0.018753126 -0.063294396
0001d0 04 e9 11 3e fc 3f 84 3d ef 41 9b bd 5f a5 34 bb
       0.14249045 0.064575166 -0.07580935 -0.002756439
0001e0 90 56 a7 bc 70 54 e2 3d 9b 3f 7d 3d 6d ef 37 bd
       -0.020427018 0.110512614 0.061828237 -0.04490607
0001f0 78 12 07 3d 98 24 74 bd 08 41 5e 3e d6 54 5e 3e
       0.032976598 -0.05960521 0.21704495 0.2171205
000200 50 eb 59 bd fd 07 5c 3a e3 41 8b bd 2a 6d 11 bc
       -0.053202927 0.00083935243 -0.06799676 -0.008876124
000210 ea eb bb 3d ba e8 45 bd a4 ce 27 bd 33 8b a8 bd
       0.091758564 -0.04831765 -0.040968552 -0.08229675
000220 04 e2 49 3e c7 3b 9f 3c 72 ad de 3d fa 7b 00 be
       0.19715124 0.019437684 0.10872926 -0.12547293
000230 5c dd 97 bc 66 cd bb 3d 6f a4 b2 3d 7c ef ec 3d
       -0.01853817 0.09170036 0.087227695 0.115691155
000240 15 9a 83 bd da f7 eb ba f2 c8 12 3d 2e da c2 3d
       -0.06425873 -0.0018002943 0.035836168 0.09514271
000250 bc 79 f8 bc f9 28 12 3e 2c 71 41 3d b0 f2 56 be
       -0.030331485 0.14273442 0.04722707 -0.20991015
000260 37 45 ca 3d 01 45 9d bd ab a9 53 be 20 61 14 3e
       0.09876483 -0.07679177 -0.20670192 0.14490175
000270 4e 85 d5 3d c9 d9 e3 3c 76 44 e5 3b 67 ec 92 bd
       0.104258165 0.027813809 0.0069966866 -0.071739964
000280 b5 f5 a5 3d 0d e3 d0 bd e4 ac 23 be 8a fc 28 3e
       0.081035055 -0.101995565 -0.15983921 0.16502586
000290 6e 79 84 bd 95 a4 d6 bc 47 95 10 3e e8 6b 4d 3c
       -0.064684734 -0.026201526 0.14119445 0.012537934
0002a0 71 5c 1c 3d d5 9b 2f bd 30 da 03 3b 36 35 df 3d
       0.038174096 -0.042873222 0.0020119064 0.10898821
0002b0 83 fd b2 3d 54 16 fa 3d b7 44 53 3d 6e 5e cd 3d
       0.0873976 0.1221129 0.051579203 0.10027777
0002c0 33 64 38 bc f3 33 b1 3d 5f fc 8b 3d 8a 6c f3 bd
       -0.011254358 0.08652487 0.06835245 -0.118859366
0002d0 d2 f5 16 3e 00 eb e4 3d 24 e8 44 bc 94 90 ba bd
       0.1474221 0.11177635 -0.012018237 -0.09109607
0002e0 b7 32 01 3e c1 7e 5f 3d 9d 2e f3 3c 9d 88 0d 3c
       0.12617002 0.05456424 0.029685313 0.008638528
0002f0 c5 e0 71 bd 53 93 3b 3d 22 ff 66 3e d3 cc 1e bd
       -0.059052248 0.045794796 0.22558263 -0.038769554
000300 39 06 34 3a 73 3c 7f 3d 0e 16 d6 3d fa 6f 38 bd
       0.00068673823 0.06231351 0.10453425 -0.045028664
000310 3e 8b 4f bd 69 27 96 3d 1d 5a 26 3d 30 e9 da 3d
       -0.0506699 0.07331736 0.040613282 0.10689008
000320 1e 1e ab bc cf e2 07 be ba 04 45 be cb 73 32 bd
       -0.020888384 -0.13270114 -0.19240084 -0.04356746
000330 1e 07 58 3c 45 fb 26 bc 1c 5b df 3c 13 68 a0 3d
       0.013185291 -0.010191743 0.027265124 0.078323506
000340 5b c0 0b 3e 4b 48 f3 bd 08 b2 35 bd 5e 9a 18 bd
       0.13647597 -0.11879023 -0.044359237 -0.03725659
000350 9a 86 79 bd 8a 93 23 3d a3 9b f6 3d c6 1b 1a 3d
       -0.06091938 0.039935626 0.12041404 0.037624143
000360 14 b1 c3 3d 6a a6 14 bc 72 2b e5 3d 6a 57 4d 3d
       0.09555259 -0.009072879 0.11189927 0.050132193
000370 94 80 2d 3e 0b 5e 0a be 37 f9 20 be 65 5d 8a 3d
       0.1694358 -0.13512437 -0.15720068 0.06756095
000380 90 70 65 bd 18 52 b6 3a d4 85 e6 bb a1 b0 c1 bd
       -0.05601555 0.0013909964 -0.0070349965 -0.094575174
000390 d6 3f 45 3d 32 0d 75 3d 44 30 a9 3a 6e 91 c6 3d
       0.04815658 0.059827037 0.0012908061 0.09695707
0003a0 d3 97 b5 bc ab e4 46 3b 28 ff dd 3c b8 42 5b 3d
       -0.022167122 0.00303487 0.027099207 0.053530425
0003b0 0d 8f d8 bd e3 09 21 3e 79 4a aa 3d 7d 40 9e bc
       -0.1057416 0.15726428 0.08314986 -0.01931786
0003c0 69 0b 03 be 4e 6f a5 3d ad 82 88 be d7 d9 c6 3b
       -0.12797321 0.0807787 -0.26662198 0.006068449
0003d0 c9 12 1a be 69 53 5e bd f4 f4 12 3e a1 3a 87 bb
       -0.15046228 -0.054278765 0.14351255 -0.004126862
0003e0 c1 70 2b 3d 9b a7 80 bb 49 b0 42 be 6b 57 2e 3e
       0.041855577 -0.00392623 -0.1901256 0.17025535
0003f0 c4 e2 9d bb cc 41 e9 bd 82 a9 f1 3d d1 30 d7 bc
       -0.0048182923 -0.11389503 0.11799909 -0.026268395

fc2.bias f4 [64]
000000 de e0 85 bd 83 65 54 bb 5e 77 41 3d 00 9e 8c 3d
       -0.06537031 -0.0032409139 0.047232978 0.068660736
000010 25 8d 21 bd a5 aa 12 bd 17 d4 9d 3c 14 6b 40 bd
       -0.039441247 -0.03580727 0.019266171 -0.046977118
000020 54 e2 d6 3d da b7 52 3d d7 4d ca bc 6e d9 46 3d
       0.104923874 0.051444866 -0.02469532 0.0485472
000030 ee 12 64 3c 63 9a 7d 3d f1 2e 0b bb 2e 11 57 bd
       0.013920529 0.061914813 -0.0021237696 -0.05250662
000040 d8 f8 34 3c 6f 55 41 3c e4 17 09 ba 90 57 c5 3c
       0.011045657 0.011800154 -0.0005229695 0.024089605
000050 ba 89 6c bb d3 45 94 3c d8 aa d7 3d 2f b9 ee bc
       -0.0036092834 0.018099701 0.10530633 -0.029141037
000060 8b 75 33 3c 2e da a5 3b 3d f8 1b 3d ba 4f 91 3b
       0.010953317 0.0050614094 0.038078535 0.004434553
000070 c5 83 27 3d e7 d0 d2 bc 28 0f 1a ba 57 50 86 3d
       0.04089715 -0.025734378 -0.0005876892 0.06558292
000080 c8 54 15 3d 8e 09 99 3d 36 3a 3b 3c fd 46 64 bd
       0.036457807 0.074725255 0.011427453 -0.055731762
000090 ac 33 50 3d 57 68 48 bd 15 b2 9f 3d a5 84 00 3e
       0.05083053 -0.04892763 0.07797638 0.125506
0000a0 7b 9b d2 3d 2f 02 1a 3c fc da 4d bd 59 2b c9 3d
       0.10283562 0.009399935 -0.050257668 0.09822721
0000b0 2d df 68 3a 87 4b d4 bc c3 7a 5e bc ec a3 41 3d
       0.00088833534 -0.02591492 -0.013579073 0.04727547
0000c0 5b 25 de 3d 6e 41 7b bd f1 7b 66 bd af d1 4e 3c
       0.10846969 -0.061341695 -0.056270543 0.012623235
0000d0 a3 df ba 3d 0f 82 4b bc 12 99 d1 3d 99 29 46 bd
       0.091246866 -0.012421145 0.10234274 -0.048379514
0000e0 37 15 71 bd 37 73 86 3d 34 f8 b6 3d 63 0e fa 3d
       -0.058858123 0.06564944 0.0893406 0.12209775
0000f0 36 ed 67 3d 87 66 45 bc 98 4b 85 3d 0d 6d 65 3b
       0.056622706 -0.01204837 0.06508559 0.0035007626

fc3.weight f4 [10, 64]
000000 98 7c 3c 3e ef c0 74 be 6a e2 37 bd 84 fa 48 3e
       0.18406904 -0.23901723 -0.04489366 0.19626814
000010 79 a3 88 be 38 57 1a 3d 26 b0 8b be d3 74 e2 3d
       -0.2668722 0.037680835 -0.27282828 0.11057439
000020 7e f2 7f be 41 a1 e0 bd 0f 45 e6 bd bb 5c 58 3e
       -0.24994847 -0.10968257 -0.11243641 0.21129124
000030 d7 3a 85 bb b2 cd 03 be a0 fd 9b be fc d1 36 bd
       -0.004065852 -0.12871435 -0.30466938 -0.04463385
000040 26 00 81 be 80 08 42 3d b2 6c e4 bc 94 88 6d 3d
       -0.25195426 0.047371387 -0.027883861 0.05799158
000050 66 ee d6 3d 19 40 f4 bd d4 60 4a be f3 6a 8b 3e
       0.1049469 -0.11926288 -0.197635 0.27230033
000060 f6 54 ce bd 40 20 ca bd d6 84 03 3e 41 c5 ac 3d
       -0.10074799 -0.098694324 0.12843642 0.08436061
000070 57 40 ed 3d 5f 2b 88 3e cc 1d 0b 3e 86 22 1a 3e
       0.115845375 0.2659559 0.13585585 0.15052232
000080 f8 de ab be a2 7a 2b 3e 95 2d 10 3d ea 5a 16 bc
       -0.3356855 0.16746 0.03519972 -0.009176949
000090 bd 0b 58 be 0e 98 9d 3d c2 d1 0f bd 32 71 e5 3d
       -0.21098228 0.07695018 -0.03511215 0.11203231
0000a0 70 8d 84 be db 50 a5 be 9e 85 43 bd 4e 25 ea be
       -0.25889158 -0.3228825 -0.04773485 -0.45731586
0000b0 21 86 d2 3d 5f 10 25 bd 57 a7 93 bd e6 2e 57 3d
       0.10279489 -0.040298816 -0.07209652 0.05253496
0000c0 59 bb 25 be 7b 1c f3 3c 84 b8 dc bd bc ce 37 3e
       -0.16184749 0.029676666 -0.10777381 0.17949957
0000d0 e4 06 47 be b7 dc 87 be 91 fc 16 3e 1b 48 f0 3d
       -0.19436222 -0.2653558 0.14744784 0.11732503
0000e0 95 6e 42 3c 17 e4 f8 3c 63 8b 34 3e df 37 2d bd
       0.011867185 0.0303822 0.17631297 -0.04228961
0000f0 2d e8 d3 3d 94 40 b6 3d 60 c8 74 be 85 36 0b 3e
       0.103470184 0.08899036 -0.23904562 0.13595016
000100 5c 06 dd bd d3 4d 2c be 68 1a 9a bc d0 75 ae bd
       -0.107922286 -0.16826563 -0.01881142 -0.08518565
000110 f9 a4 83 3e 22 4e 01 3e 76 07 55 3e 33 c4 dd 3c
       0.25711802 0.12627462 0.20803627 0.027071094
000120 c3 77 48 be 44 4f e1 3c 78 ea 1f 3e 12 f8 86 be
       -0.19576935 0.027503617 0.15616786 -0.26361138
000130 ae 2c 32 be e5 81 76 be 08 8f c9 3d a5 56 44 be
       -0.17399856 -0.24072988 0.09841734 -0.19173677
000140 69 9e 82 3d c7 22 88 3d 10 9a d4 ba 5b 9e b6 be
       0.063778706 0.06647258 -0.0016220231 -0.3566769
000150 72 bf e8 3b a0 1e 73 3e e2 a1 4e 3e 63 0e e3 bd
       0.0071029 0.23742151 0.20178941 -0.110867284
000160 5a 44 e6 bd 95 83 13 3e bc b9 90 be ae 61 dd bc
       -0.11243506 0.14405663 -0.28266704 -0.027024116
000170 82 0c 75 be 39 4f 9d bd e6 ce 3b be db a7 45 be
       -0.23930553 -0.07681126 -0.18340644 -0.19302313
000180 8f 78 67 be 49 de af bd 71 60 85 be c3 29 02 3e
       -0.22604583 -0.085873194 -0.2605014 0.12711243
000190 c6 fb 0e be f5 3f eb bd cf 8b a7 bd 12 45 82 be
       -0.13963231 -0.11486808 -0.08180963 -0.2544332
0001a0 f6 1a 3d be d8 6e cd 3d 97 19 27 be ca a9 3b 3e
       -0.18467316 0.100309074 -0.16318356 0.18326488
0001b0 77 ef 8d bc 5e 00 5b 3e b5 1f 07 be c1 dd 18 bc
       -0.0173261 0.21386859 -0.13195689 -0.009330214
0001c0 eb 89 57 be 47 af 1b 3e 0e fb 3e be e2 5d ab be
       -0.21048705 0.15203582 -0.18650457 -0.33470064
0001d0 34 a2 2a 3e b6 94 45 3e bd c4 37 be fa a1 04 be
       0.16663438 0.1929501 -0.17946143 -0.12952414
0001e0 2c 0e ca be ac 0b 64 be 99 1b b1 be 96 e6 82 3e
       -0.39463937 -0.22270077 -0.34591368 0.25566548
0001f0 30 c4 87 3d ee bc 50 be cf 13 ba 3d a2 12 22 be
       0.06629217 -0.20384571 0.090858094 -0.1582742
000200 8f 52 41 be f6 52 69 be 68 aa 1a be 87 3c 6d 3c
       -0.1887915 -0.22785553 -0.15104067 0.014479763
000210 ee 19 8b be 63 22 3c be 48 a8 27 3e b7 54 29 bc
       -0.2716822 -0.18372492 0.16372788 -0.010335139
000220 69 48 90 3d 69 c6 fb 3c 1a ad 2f 3d 0b 1a 73 be
       0.07045061 0.030734258 0.042889692 -0.23740403
000230 db ab 5e 3d eb 85 17 3e 1e e2 a2 bd b0 00 70 3d
       0.054363113 0.1479718 -0.07953285 0.058594406
000240 87 98 5f 3d 34 68 27 3d 72 6c 16 3d 24 e1 5b bd
       0.05458882 0.04087086 0.036724515 -0.053681508
000250 ee 80 45 be 77 0f 8d be d1 8e 2f be 71 4b c2 3b
       -0.19287464 -0.2755086 -0.17144324 0.0059294035
000260 b3 c3 c3 bd 47 ec 14 3d cd 78 93 3e 9e 15 a1 3d
       -0.09558811 0.036358144 0.288031 0.07865451
000270 c3 30 de 3d db 19 e0 3c f4 e6 88 be d4 01 05 be
       0.10849144 0.027356079 -0.26738703 -0.12988979
000280 1d 8e 50 be a2 93 94 3e 71 72 8e be b9 be e6 3c
       -0.20366712 0.29018885 -0.27821687 0.028167116
000290 1a 29 13 be d5 d2 1c be 95 f2 4f be 3d 5e 04 3d
       -0.14371148 -0.15314801 -0.20307381 0.032316435
0002a0 f4 f5 67 be e1 b3 3f 3e f5 a0 a5 3d 3c 71 99 3d
       -0.22652417 0.18720962 0.08087341 0.07492301
0002b0 4e 66 88 bd e1 81 8c be 77 b6 76 3d 1d f8 14 be
       -0.06660138 -0.2744284 0.060232606 -0.14547773
0002c0 29 15 2e 3e 10 cc a1 3d 74 bc 1c be 11 54 11 3d
       0.1700026 0.0790025 -0.15306264 0.035480563
0002d0 2b 4a f6 3d bb a1 46 be c1 4c ae 3e 1c 58 eb bd
       0.12025865 -0.19397633 0.34042934 -0.11491415
0002e0 ed 88 19 3e 4f 65 a7 be 08 45 15 be cd 5f 93 be
       0.1499364 -0.3269448 -0.14577115 -0.28784028
0002f0 20 c5 94 3d 40 92 66 be f0 85 99 3e ef 50 56 3e
       0.07264161 -0.22516727 0.29985 0.20929311
000300 76 dd 31 bd 8c 82 f0 3b 2c f3 86 3d b4 95 83 be
       -0.043424092 0.007339781 0.0658935 -0.25700152
000310 ce 81 49 bc 00 c8 19 be f8 a7 09 3e 5b ca 87 bd
       -0.012299014 -0.150177 0.13442981 -0.06630393
000320 b3 ba 49 3e 9c 99 01 3d 2c 4b ad bd 5b 94 58 be
       0.19700126 0.031640634 -0.084616035 -0.21150343
000330 05 32 50 3c 24 60 15 be ab ff 56 3e d6 c7 38 be
       0.012707238 -0.14587456 0.20995967 -0.18044981
000340 7c ef 34 3e c3 87 37 bd 9c 01 e9 bd 6b db 0d be
       0.17669481 -0.044807207 -0.1137726 -0.13853233
000350 02 05 47 3e 58 10 33 bd 94 11 58 3e 36 97 ad bd
       0.19435504 -0.04371676 0.21100456 -0.08476107
000360 28 29 08 be cd bb ae be 2b 9f e3 3c 4c 8d ed 3d
       -0.1329695 -0.34127656 0.027785858 0.11599216
000370 cb 0c 87 be 01 df ad bd 78 f9 46 be 90 f4 94 be
       -0.26376948 -0.084898 -0.19431102 -0.29092836
000380 67 44 13 be b9 4b 8a be 5e 1c f7 3d 33 5a 81 be
       -0.14381562 -0.27010897 0.120659575 -0.2526413
000390 92 18 32 be 8f 49 8f 3e be 62 40 bd ec 1d 86 3d
       -0.17392185 0.27985808 -0.046969168 0.06548676
0003a0 26 7a 30 be 21 d9 9d 3c 55 1c 52 3e c3 e0 c8 be
       -0.17234096 0.019268574 0.2051862 -0.3923398
0003b0 97 16 9f 3d 17 36 5d be 97 fa cc bd c5 6a 8e 3d
       0.077679805 -0.21602665 -0.10008734 0.069539584
0003c0 b3 85 18 3e 0a 02 94 be 4d 1c 81 bd f1 f5 af 3c
       0.14894752 -0.28907806 -0.06304226 0.021479579
0003d0 03 0c c5 be 95 a4 28 bd 79 d3 fd ba a4 43 f9 3d
       -0.38485727 -0.041172583 -0.0019365392 0.121711046
0003e0 40 3a 77 3e b5 52 d8 be 63 13 89 3e 6b f7 7c 3e
       0.24143314 -0.422506 0.26772603 0.24703757
0003f0 a6 c7 a7 3d 23 76 9b be e2 13 09 3e 99 21 7b be
       0.08192377 -0.3036357 0.13386491 -0.24524535

fc3.bias f4 [10]
000000 f5 b9 1a bd 16 9c ad 3d 46 da 08 3d 34 e5 66 3b
       -0.037775 0.08477037 0.033411287 0.003523183
000010 8c 21 01 3e e5 49 63 bd 17 6d da bd ea 24 db bc
       0.12610453 -0.055490393 -0.106653385 -0.026751
000020 c5 0c 85 3d 08 08 5b 3d
       0.06496576 0.053474456
