tools/tvm/python/test.onnx (onnx, 438746 bytes, 6 tensors)

test_const_13 f4 [128, 784]
0	0xbbc64790	-0.0060510114
1	0xbc02d5a0	-0.0079855025
2	0x3d34195a	0.04396949
3	0xbd31bbbe	-0.043391936
4	0x3c92b218	0.017907187
5	0xbd82670c	-0.06367311
6	0x3d49659a	0.04916916
7	0xbda0bc9e	-0.07848476
8	0xbc7dd588	-0.015492804
9	0xbd0d9ec9	-0.034575257
10	0xbd9907e0	-0.07472205
11	0xbd015972	-0.031579442
12	0xbd69297e	-0.056924336
13	0xbca83c92	-0.020536695
14	0x3c00b848	0.007856436
15	0xbd6ebdef	-0.058286604
16	0x3abd2a40	0.0014432147
17	0xbd34d9e4	-0.04415311
18	0x3d88de8f	0.06683075
19	0x3ce09788	0.027416006
20	0x3d9253f5	0.0714492
21	0x3d9cf97b	0.07664772
22	0xbc8c1e48	-0.017104283
23	0xbd965569	-0.073405094
24	0x3bfc73e0	0.007704243
25	0xbd5eae83	-0.054365646
26	0xbcb8c7e4	-0.022556253
27	0xbda4d4ea	-0.08048423
28	0x3d8253af	0.06363618
29	0xbd2b2f58	-0.041793197
30	0xbda4c511	-0.080454
31	0x3d48fa9e	0.049067132
32	0xbd903aba	-0.07042451
33	0xbb8e8e38	-0.00435045
34	0xbd463424	-0.04838957
35	0x3d228eac	0.039686844
36	0x3bbb8008	0.0057220496
37	0xbd704bb4	-0.058665946
38	0xbc89d728	-0.016826227
39	0xbdf0996c	-0.11748013
40	0xbd611e87	-0.054960754
41	0x3d0d7787	0.03453782
42	0xbe05b37e	-0.13056752
43	0xbde4a305	-0.11163906
44	0xbd9e4297	-0.07727545
45	0x3d6a0584	0.057134166
46	0xbd978d13	-0.07399955
47	0x3cd36aed	0.025807822
48	0xbce4faf6	-0.027951699
49	0x3d717333	0.058947753
50	0xbd130278	-0.035891026
51	0xbac514c0	-0.0015036091
52	0xbd813f80	-0.0631094
53	0xbac68f00	-0.0015148818
54	0xbc83a63c	-0.016070478
55	0x3d27f7e4	0.04100789
56	0xbcf56e2e	-0.029959764
57	0xbd2abff1	-0.041686956
58	0xbc0baa16	-0.008524438
59	0x3cef6da8	0.029227093
60	0xbc4f034d	-0.012635064
61	0xbda21fd5	-0.07916228
62	0xbdcd7468	-0.10031968
63	0xbd7886c2	-0.06067539
64	0xbce001cc	-0.027344607
65	0xbe6ddca6	-0.23228702
66	0xbdd7a28c	-0.1052905
67	0x3d50d1b9	0.050981257
68	0xbd58f638	-0.052969187
69	0xbdb30491	-0.08741105
70	0xbe8d880b	-0.27642855
71	0xbe9c23c8	-0.3049605
72	0xbe9c1473	-0.30484352
73	0xbe7ef43d	-0.24897857
74	0x3d79957c	0.060933575
75	0x3cc43043	0.023948794
76	0x3c49f18c	0.012325656
77	0x3cfd7a49	0.0309421
78	0x3d17a551	0.037022892
79	0x3db64ba4	0.08901146
80	0xbbd69741	-0.0065487926
81	0xbcad561e	-0.021159228
82	0xbcb71664	-0.022349544
83	0x3d7481ee	0.059694223
84	0xba9005c0	-0.0010988042
85	0xbd61dee4	-0.055144206
86	0xbd46a21c	-0.048494443
87	0x3c90f0b9	0.01769291
88	0xbe1ce197	-0.1532043
89	0xbd6bea0b	-0.057596248
90	0x3d6fc217	0.058534708
91	0x3e0641d2	0.13111046
92	0x3e881a5f	0.2658262
93	0xbe05ac2c	-0.1305396
94	0xbd80202b	-0.062561356
95	0xbde9fd3e	-0.11425255
96	0xbdaeff09	-0.08544738
97	0xbdb40ab1	-0.08791102
98	0xbdf87022	-0.12130763
99	0xbe56b8df	-0.2096896
100	0xbe5477d6	-0.20748839
101	0xbe6aa8b6	-0.2291592
102	0xbe9e4fc3	-0.30920228
103	0xbe59541b	-0.2122349
104	0xbce4e3a2	-0.027940575
105	0xbd931202	-0.07181169
106	0xbe572c38	-0.21012962
107	0x3b6dd62a	0.0036290982
108	0x3ba1bdb6	0.0049359454
109	0xbe012a14	-0.12613708
110	0xbcfb633e	-0.03068697
111	0xbc974e2c	-0.018469892
112	0x3d85861d	0.06519721
113	0xbd5ce4df	-0.053929206
114	0x3d9777f6	0.073959276
115	0x3c854c08	0.016271606
116	0xbcd05789	-0.025432365
117	0xbe56dc47	-0.20982467
118	0xbe846e55	-0.25865427
119	0x3dbb2bf1	0.091392405
120	0x3db0c37f	0.08631038
121	0x3d3f685a	0.046730377
122	0x3d803da6	0.062617585
123	0x3df2267c	0.118237466
124	0xbd3c8df7	-0.046033826
125	0x3d7bf30f	0.061511096
126	0x3d2b4bbc	0.041820273
127	0x3be37526	0.0069414554
128	0xbdda83d2	-0.10669674
129	0xbe3a6b00	-0.1820488
130	0xbe9bcfad	-0.30431882
131	0xbe053f26	-0.1301237
132	0xbe0f13e6	-0.13972434
133	0xbbe58fb3	-0.0070056557
134	0xbdd58392	-0.10425486
135	0xbdb42d03	-0.08797648
136	0x3c6efe03	0.014586928
137	0xbda55a7b	-0.080738984
138	0x3e740f7f	0.23834036
139	0x392361a7	0.0001558127
140	0xbd8bc6a3	-0.06824996
141	0x3d6cf1fa	0.057847954
142	0x3d9561d0	0.07294047
143	0x3d2095a1	0.039205197
144	0xbe1170c1	-0.14203168
145	0xbdc04359	-0.093878455
146	0xbe1ba71a	-0.15200463
147	0x3e31766b	0.17330329
148	0x3c496aac	0.012293499
149	0xbe1f0d0f	-0.15532325
150	0xbe213afb	-0.15745156
151	0xbd4829cb	-0.048867982
152	0x3cc94589	0.02456929
153	0x3cae0fbb	0.021247735
154	0xbd449d63	-0.04800166
155	0xbdc46390	-0.095893025
156	0x3ab55412	0.0013834259
157	0x3b463512	0.0030244035
158	0xbd0e5625	-0.034750123
159	0xbd71dfee	-0.059051447
160	0x3dc8b562	0.09800221
161	0xbdb4bdd6	-0.08825271
162	0xbd07c48a	-0.03314642
163	0xbd0af653	-0.03392632
164	0xbdd8ef6a	-0.105925396
165	0xbd02b2ef	-0.031908926
166	0x3db37af1	0.087636836
167	0x3de1f9fb	0.11034008
168	0x3d83e957	0.064409904
169	0x3e0edebe	0.13952157
170	0xbe098b88	-0.13432133
171	0xbdb868f1	-0.09004391
172	0xbe46e5fc	-0.1942367
173	0xbe676898	-0.22598493
174	0xbe6b085d	-0.22952409
175	0xbd907edc	-0.070554465
176	0xbce8bc6d	-0.02841016
177	0x3d304a56	0.043039642
178	0xbe47bc6c	-0.19505471
179	0xbe417c79	-0.18895139
180	0xbc1ebc0c	-0.009688389
181	0x3da0d309	0.07852752
182	0x3db55cb5	0.08855573
183	0x3e3ddb5b	0.18540709
184	0x3da98bb9	0.08278603
185	0x3d617191	0.055039946
186	0xbde6ff52	-0.11279167
187	0xbdd1391d	-0.102159716
188	0xbc79e500	-0.015252352
189	0xbd41a911	-0.047280375
190	0x3e2a6e84	0.16643721
191	0x3e69ec4f	0.22844051
192	0x3e67b2b0	0.22626758
193	0x3e5a915e	0.21344516
194	0xbcae8811	-0.021305116
195	0x3d2700d3	0.04077227
196	0x3d1c2415	0.038120348
197	0x3ddf0f81	0.10891629
198	0xbd4160ac	-0.047211334
199	0x3cb63953	0.022244131
200	0xbcc714df	-0.024301944
201	0x3cc595f1	0.02411935
202	0xbe5401aa	-0.2070376
203	0xbe480251	-0.19532134
204	0xbd578784	-0.052619472
205	0x3d870ffa	0.06594844
206	0x3dffc2a3	0.12488296
207	0x3cd53a70	0.026028842
208	0x3d267419	0.040638063
209	0x3d3d1f32	0.04617233
210	0xbd9fb43d	-0.077980496
211	0x3d2640d6	0.040589176
212	0x3c655ab7	0.013998679
213	0x3d82d6a0	0.06388593
214	0x3d599a28	0.05312553
215	0x3b40ed6c	0.002943839
216	0xbdde76d2	-0.10862507
217	0xbddb73e1	-0.107154615
218	0xbcaa3088	-0.020775095
219	0x3e32d495	0.17463906
220	0x3df01db6	0.11724417
221	0x3e74ba59	0.23899211
222	0x3e038c5c	0.12846512
223	0x3dd68d39	0.10476155
224	0x3b543c51	0.0032384584
225	0xbe26ab76	-0.16276345
226	0x3d82c514	0.06385246
227	0x3dd08a81	0.101826675
228	0x3e2e9df9	0.1705245
229	0x3b633fb8	0.003467543
230	0xbc11840c	-0.00888158
231	0xbe1c8b01	-0.15287401
232	0xbc689630	-0.014195964
233	0x3dd778f1	0.105211146
234	0x3dc5bd02	0.09655191
235	0x3c0752db	0.0082595
236	0x3beb978d	0.007189697
237	0xbcd4ae78	-0.0259621
238	0xbb865245	-0.0040991628
239	0x3dea71f4	0.11447516
240	0x3dba269e	0.09089397
241	0x3e28f37b	0.1649913
242	0x3d91140e	0.07083903
243	0xbc65b89e	-0.014021067
244	0x3db86909	0.09004409
245	0xbdabd6fb	-0.08390614
246	0x3e491f6f	0.19640897
247	0x3d782731	0.06058425
248	0x3dd5a4dc	0.10431835
249	0x3e95b1a6	0.29237098
250	0x3e2c2f1b	0.16814844
251	0x3dda3887	0.10655313
252	0x3c8c84ed	0.017153228
253	0xbdbb9682	-0.091595665
254	0x3e0f4740	0.13992023
255	0x3e04757a	0.12935439

test_const_14 f4 [128]
0	0xbdb96a35	-0.090534605
1	0xbce7188f	-0.028209953
2	0xbd5a56ec	-0.05330555
3	0x3e46972b	0.19393604
4	0x3dd74f32	0.10513152
5	0xbce2c6af	-0.02768263
6	0x3d7b18cb	0.06130294
7	0xbca68217	-0.020325704
8	0x3dd2bf70	0.1029042
9	0xbc739436	-0.014866879
10	0xbb9467f8	-0.0045289956
11	0x3d69a628	0.057043225
12	0xbe4b3b71	-0.19846894
13	0xbd6dae3b	-0.058027487
14	0x3dd8a00a	0.105774
15	0xbd635673	-0.055502366
16	0x3e10b1e4	0.1413036
17	0xbd3b0fe1	-0.04566944
18	0x3d35000d	0.0441895
19	0x38df9112	0.0001066049
20	0xbdb944cf	-0.09046327
21	0x3e4670ec	0.19379014
22	0xbce8e95b	-0.028431585
23	0x39c2f068	0.0003718168
24	0xbb6c9ba3	-0.003610351
25	0xbb8135f5	-0.0039431998
26	0x3df35db7	0.11883109
27	0x3da438f4	0.080186754
28	0x3e222e5a	0.15837994
29	0xbe25a2b0	-0.16175342
30	0x3c8b0aa6	0.016972851
31	0xbd3c6745	-0.045996923
32	0x3e592d43	0.21208672
33	0xbd310ca8	-0.04322496
34	0xbd0e1b66	-0.034694098
35	0x3e244a81	0.16044046
36	0x3dc193b0	0.09451997
37	0x3d486a37	0.04892942
38	0x3e0fed9d	0.14055486
39	0xbd619cf9	-0.05508134
40	0x3dbe95c2	0.09305908
41	0x3cdbbcb1	0.026823374
42	0x3d658ef5	0.056044538
43	0xbd14b683	-0.03630687
44	0x3de9d92e	0.11418377
45	0x3d2eadd6	0.04264625
46	0xbd391895	-0.04518946
47	0xbdaff80a	-0.085922316
48	0x3ccdf90f	0.025143174
49	0xbceb4c4a	-0.0287229
50	0xbd6be3c0	-0.057590246
51	0x3def5989	0.11686999
52	0x3d4abab2	0.049494453
53	0xbcbe772c	-0.023250185
54	0x3dfb793b	0.12278982
55	0xbca5a243	-0.020218974
56	0xbd347133	-0.044053268
57	0xbce9412d	-0.028473461
58	0x3cca5fc7	0.024703873
59	0xbdbec58a	-0.09315021
60	0xbd7df54c	-0.06200151
61	0x3de9a039	0.11407513
62	0x3dfa70a3	0.12228515
63	0xbe0bf39b	-0.13667147
64	0xbdc25952	-0.09489693
65	0xbd090663	-0.033453356
66	0x3cff3197	0.031151576
67	0x3de6b7cd	0.11265526
68	0x3d92abd8	0.07161683
69	0x3db20158	0.086916625
70	0xbdfc439a	-0.123175815
71	0x3c746d53	0.014918643
72	0x3c02005f	0.007934659
73	0x3d3c15ba	0.045919158
74	0xbc39af73	-0.011333334
75	0x3b9259a4	0.0044662524
76	0xbd674ca1	-0.056469563
77	0x3e47fc63	0.19529872
78	0x3e2402aa	0.16016641
79	0xbd65f277	-0.056139436
80	0x3caa99d8	0.020825312
81	0x3d4423aa	0.047885574
82	0xbe2048fc	-0.15652841
83	0x3dab3246	0.08359198
84	0x3cffc8e1	0.031223716
85	0xbdb1a130	-0.08673322
86	0xbbb67261	-0.0055678342
87	0x3db0a968	0.08626062
88	0xbd4c66cf	-0.049902733
89	0xbe187b3b	-0.14890759
90	0x3b60fb69	0.003432954
91	0xbdefbc7e	-0.11705874
92	0xbd970bb0	-0.07375276
93	0x3d251cc5	0.04031064
94	0xbd0e5c68	-0.034756094
95	0xbdf99857	-0.1218726
96	0x3e51a154	0.20471698
97	0x3c38b4c0	0.011273563
98	0x3d90e27b	0.07074448
99	0x3e0354a5	0.12825258
100	0xbd9482e3	-0.07251527
101	0xbe31a9a5	-0.1734987
102	0xbe0c6f90	-0.13714433
103	0x3bdb3e28	0.006690759
104	0xbd1787b9	-0.03699467
105	0xbdb102fe	-0.08643149
106	0xbd38fb4f	-0.04516154
107	0xbd418bf6	-0.047252618
108	0x3dd4aaf5	0.1038417
109	0x3cab59c0	0.02091682
110	0xbe8089ca	-0.25105125
111	0xbda57403	-0.08078768
112	0xbd824cd5	-0.06362311
113	0x3d3eae87	0.04655316
114	0x3e720639	0.23635186
115	0xbdfa67e0	-0.12226844
116	0x3d86da88	0.0658465
117	0xbc657371	-0.014004574
118	0x3d3e022e	0.046388797
119	0x3dedb1cf	0.1160618
120	0x3b2c7d6a	0.002631987
121	0x3da54fda	0.08071871
122	0x3c3da1a0	0.011574179
123	0x3d8f27e0	0.069900274
124	0xbdfc56e1	-0.12321258
125	0x3d44c6a2	0.048040994
126	0x3de82207	0.11334615
127	0xbd74bda9	-0.059751187

test_const_15 f4 [64, 128]
0	0x3debef87	0.115202956
1	0xbdef555c	-0.11686203
2	0x3e5c8a1c	0.2153706
3	0xbed9b44a	-0.42520362
4	0x3d621759	0.055198047
5	0xbe5cdf58	-0.21569574
6	0x3d3e47a0	0.046455026
7	0xbc938be1	-0.018011035
8	0xbe199e07	-0.15001689
9	0xbe318359	-0.17335261
10	0xbe0794c1	-0.13240339
11	0xbe0c5cc2	-0.1370726
12	0x3e575c2a	0.21031252
13	0xbe099bd7	-0.13438354
14	0x3e15f80c	0.14645404
15	0xbe80a634	-0.25126803
16	0x3d3af37e	0.04564237
17	0x3e29bbac	0.16575497
18	0x3deeb838	0.11656231
19	0xbe2b96c9	-0.16756739
20	0x3e9cfc6e	0.3066134
21	0x3e3b673e	0.18301103
22	0x3e1f94ae	0.1558406
23	0x3e914bb3	0.28378066
24	0xbed4c75b	-0.41558346
25	0xbeb5814a	-0.35450202
26	0xbe205c6d	-0.15660258
27	0x3e7b2457	0.24525581
28	0x3ccc8d67	0.02496977
29	0x3defa9f4	0.11702338
30	0xbdfae04e	-0.12249814
31	0x3e2402f6	0.16016755
32	0xbe21ffe6	-0.15820274
33	0xbe2fb71d	-0.17159696
34	0x3dd5a94d	0.10432682
35	0xbec1faec	-0.3788675
36	0x3e273f33	0.16332702
37	0x3c9eb241	0.019372107
38	0xbdcbee1e	-0.099575266
39	0xbdb5be1b	-0.0887415
40	0x3e673327	0.22578107
41	0x3daebb82	0.08531858
42	0xbd79bdc9	-0.06097201
43	0x3dab6f75	0.08370868
44	0x3e9f0c35	0.31064
45	0xbc57b735	-0.013166239
46	0xbe22bf7e	-0.15893361
47	0x3c9db54d	0.01925149
48	0xbd0934b6	-0.033497535
49	0x3e4b087c	0.19827455
50	0xbd57a344	-0.052645937
51	0xbb5e319e	-0.0033904086
52	0x3e2817b8	0.16415298
53	0xbcc721cc	-0.024308108
54	0xbcddbdaf	-0.027067987
55	0x3dea4a0b	0.11439904
56	0x3e62175e	0.22079226
57	0x3e2331d4	0.15936977
58	0xbd894a7f	-0.06703662
59	0xbcf77420	-0.03020674
60	0x3e717701	0.23580553
61	0xbc673c89	-0.014113554
62	0x3bb4693a	0.005505708
63	0x3ed155b6	0.40885705
64	0xbda3cc98	-0.079980075
65	0xbe168286	-0.14698228
66	0x3ebe9777	0.37224934
67	0x3d11c175	0.035584886
68	0xbe07e7f7	-0.13272081
69	0x3e843d96	0.25828236
70	0x3d8b888a	0.06813152
71	0x3cd8810e	0.026428726
72	0x3d2df40e	0.042469077
73	0x3cdc6113	0.026901757
74	0x3e428ef3	0.18999843
75	0x3ef2e7ac	0.47442377
76	0xbd2820f6	-0.04104706
77	0x3e18a684	0.1490727
78	0x3deb0ee0	0.114774466
79	0x3d5119b5	0.051049907
80	0x3d5288ff	0.05140018
81	0x3e5a4bf2	0.21318033
82	0x3d7e7b93	0.06212957
83	0x3e5aca2a	0.21366182
84	0x3d86a1cf	0.06573831
85	0x3e0361f8	0.12830341
86	0xbe217649	-0.15767778
87	0xbe2bde10	-0.16783929
88	0x3e8eefe2	0.2791739
89	0x3e0ef73b	0.13961498
90	0xbca3d152	-0.019997273
91	0xbe8a2c92	-0.2698713
92	0xbd92adf5	-0.07162086
93	0x3b239845	0.0024962586
94	0x3d0cc7c0	0.034370184
95	0xbd9fb52d	-0.077982284
96	0xbdb04f13	-0.08608832
97	0x3ce3a5fd	0.02778911
98	0x3de2633c	0.11054084
99	0x3e14c0b9	0.14526643
100	0x3dfc399e	0.12315677
101	0xbe140ead	-0.14458723
102	0x3e07496b	0.132116
103	0x3e4c8071	0.19970872
104	0x3e82f8f2	0.25580555
105	0x3d2621b2	0.040559478
106	0xbc82f435	-0.015985588
107	0x3ebab4b1	0.36465982
108	0xbe88a963	-0.26691732
109	0xbe0794d8	-0.13240373
110	0x3d078942	0.033089884
111	0xbe1b78e1	-0.1518283
112	0x3dec1532	0.1152748
113	0xbda08eb6	-0.0783972
114	0xbe4e786e	-0.20163128
115	0x3c649f5b	0.013954009
116	0x3e9d7fea	0.30761653
117	0xbe4ace60	-0.19805288
118	0x3e06779b	0.13131563
119	0xbe921155	-0.28528848
120	0x3e28969f	0.16463707
121	0xbde5d602	-0.112224594
122	0x3ef9765c	0.48723114
123	0xbd8a8594	-0.06763759
124	0xbd9ced31	-0.07662428
125	0x3e9941f4	0.2993313
126	0xbeb8231c	-0.35964286
127	0x3e5fbd1f	0.21849488
128	0x3e025b6f	0.12730192
129	0x3dffe560	0.12494922
130	0xbf016e5e	-0.5055903
131	0x3c9d6806	0.019214641
132	0xbd761976	-0.060082875
133	0xbf0d5b59	-0.5521751
134	0xbd489e8c	-0.048979327
135	0x3e06bb2c	0.13157338
136	0xbe1b1e68	-0.15148318
137	0x3e6cc8e3	0.23123507
138	0x3dabfd36	0.083979055
139	0xbc963da0	-0.018339932
140	0xbdfb349e	-0.12265895
141	0xbe9764af	-0.29569003
142	0x3cf44461	0.029817762
143	0x3e8f664d	0.28007737
144	0xbeb798fb	-0.35858902
145	0x3e0bfbe3	0.13670306
146	0x3ea45015	0.32092348
147	0xbf448a85	-0.76773864
148	0x3ce6cb6e	0.028173175
149	0x3e079e0e	0.13243887
150	0x3e453787	0.19259463
151	0x3e80e0ff	0.25171658
152	0xbd635468	-0.055500418
153	0x3d263a57	0.04058298
154	0xbef6010b	-0.4804767
155	0x3e4cf59b	0.20015566
156	0x3d940e7f	0.072293274
157	0x3de2c923	0.1107352
158	0x3da6e735	0.08149568
159	0x3d10fc12	0.035396643
160	0xbeb7127f	-0.357563
161	0x3dad3c53	0.084587716
162	0xbdcf3c64	-0.101189405
163	0x3d8b68ec	0.06807122
164	0xbd881611	-0.06644834
165	0x3c04fd54	0.008117039
166	0xbd843d50	-0.06457007
167	0x3e00b40f	0.12568687
168	0x3e12d33c	0.14338392
169	0xbecfc3b3	-0.40578994
170	0xbdc0f50f	-0.09421741
171	0x3da9d19e	0.082919344
172	0xbe8f36f4	-0.27971613
173	0x3e8763a6	0.26443213
174	0xbf3be57f	-0.7339706
175	0x3bbfb884	0.0058508534
176	0xbf028942	-0.5099069
177	0xbd1f202a	-0.038849033
178	0xbdd34ad2	-0.10317005
179	0x3e006585	0.12538727
180	0xbbf81b24	-0.007571595
181	0xbd197b1a	-0.037470914
182	0x3e884c32	0.26620632
183	0x3ce2e80e	0.027698543
184	0x3e5fae26	0.21843776
185	0x3e4c6fed	0.19964571
186	0x3ddf1b0d	0.108938314
187	0xbdc3314b	-0.09530886
188	0xbdfe88c8	-0.12428433
189	0x3e73ada8	0.23796713
190	0xbe88e108	-0.26734185
191	0xbe106010	-0.14099145
192	0xbe0cff5e	-0.1376929
193	0x3d710a1f	0.058847543
194	0x3dc493cf	0.09598505
195	0x3e4ae4de	0.19813868
196	0x3e66288a	0.22476402
197	0xbcc47303	-0.023980623
198	0xbe28ddf6	-0.16490921
199	0x3e4d5d37	0.2005509
200	0x3e01a999	0.12662353
201	0x3cc49a3e	0.02399933
202	0xbe92f830	-0.28704977
203	0x3ec70e1d	0.38877955
204	0x3e74f568	0.2392174
205	0xbe3b9920	-0.18320131
206	0x3e3be941	0.18350698
207	0xbd1f727a	-0.038927533
208	0xbd48036c	-0.04883139
209	0x3da48245	0.080326594
210	0x3e848d47	0.25889036
211	0x3e4ea80d	0.20181294
212	0xbce76883	-0.028248077
213	0x3e72db43	0.23716454
214	0xbd128f56	-0.035781227
215	0xbcebb2b6	-0.02877174
216	0xbd92c0e8	-0.071657
217	0x3c3a343e	0.011364995
218	0x3d88780f	0.06663524
219	0xbdddd0dd	-0.10830853
220	0xbe2499ac	-0.16074246
221	0x3de7c005	0.11315922
222	0x3d961e85	0.0733004
223	0x3e2c85b4	0.16847879
224	0x3dd5312f	0.10409772
225	0x3dd340bd	0.10315082
226	0xbe163ae2	-0.146709
227	0x3c3f222d	0.011665863
228	0xbdf04761	-0.117323644
229	0x3ddf5c4b	0.10906275
230	0x3e0b7a7b	0.13620941
231	0xbe8082f9	-0.25099924
232	0xbe805aa3	-0.2506915
233	0xb90f343c	-0.00013657002
234	0x3e83af37	0.25719616
235	0x3e376c54	0.17912418
236	0x3e9f3b25	0.3109981
237	0x3d624a26	0.055246495
238	0xbbc0c709	-0.005883102
239	0xbeeda3ba	-0.46413976
240	0xbe075551	-0.1321614
241	0xbec9c38a	-0.39406997
242	0x3e4bb6f7	0.19894014
243	0xbe3555ac	-0.17708462
244	0xbeba3e52	-0.36375672
245	0x3eeacbc1	0.45858577
246	0x3e167d8d	0.14696331
247	0x3d9d37f9	0.076766916
248	0x3d82490e	0.0636159
249	0xbc33bd57	-0.010970435
250	0x3ece8e79	0.40343073
251	0xbe1428a8	-0.14468634
252	0x3e7ea845	0.24868877
253	0x3e38ba8d	0.18039913
254	0xbe06658c	-0.13124675
255	0x3d47fde2	0.048826106

test_const_16 f4 [64]
0	0x3e2d8885	0.1694661
1	0x3e5b35dc	0.21407264
2	0x3d6ad971	0.057336275
3	0xbdde98bc	-0.108689755
4	0x3c8231ef	0.01589295
5	0x3e875571	0.26432374
6	0x3d900804	0.07032779
7	0x3c6fc7fc	0.014635082
8	0xbe083886	-0.13302812
9	0xbe14c834	-0.14529496
10	0x3de4a5b2	0.111644164
11	0xbdeed3c3	-0.11661484
12	0xbd96f1af	-0.07370316
13	0xbd379283	-0.04481746
14	0xbe1dc181	-0.15405847
15	0xbde11cb0	-0.109918
16	0xbdd785cb	-0.10523566
17	0xbd100937	-0.035165038
18	0x3e076c7a	0.13224974
19	0x3ebb631c	0.36599052
20	0xbda3a235	-0.07989923
21	0xbd3c7a64	-0.04601516
22	0x3e1692b1	0.14704396
23	0x3d7a61a8	0.06112829
24	0xbdb076b6	-0.08616392
25	0xbd88d82a	-0.06681855
26	0x3dca8ae7	0.09889775
27	0x3c97e205	0.018540392
28	0x3dce811d	0.1008322
29	0x3e205204	0.15656286
30	0x3e516e53	0.20452242
31	0x3dfc4c43	0.12319233
32	0xbdc51603	-0.09623339
33	0x3a7f1f38	0.000973213
34	0x3e0e3e2c	0.13890904
35	0xbd462862	-0.048378356
36	0x3e4f0105	0.20215233
37	0x3e36ffdd	0.17871042
38	0x3d17cf5f	0.037063
39	0x3dee39e2	0.11632134
40	0xbe35b511	-0.17744853
41	0xbce9d453	-0.028543627
42	0xbd9153c5	-0.07096056
43	0xbd6599c9	-0.056054864
44	0x3d6c56f1	0.0577001
45	0x3de18f67	0.1101368
46	0xbc39cc32	-0.011340188
47	0xbdf0c269	-0.11755831
48	0x3e29f266	0.16596374
49	0x3cea1134	0.028572656
50	0x3e8ba73e	0.27276033
51	0x3d1539a7	0.036431935
52	0xbd295240	-0.041338205
53	0x3dd77dec	0.105220646
54	0x3daefb45	0.085440196
55	0x3e06c9fd	0.1316299
56	0x3db43d65	0.088007726
57	0x3dd3cfd3	0.10342374
58	0xbd1d6e42	-0.03843523
59	0xbd9de806	-0.077102706
60	0xbe0208f5	-0.1269873
61	0xbcc28836	-0.023746591
62	0xbce5f180	-0.028069258
63	0x3e08a224	0.13343102

test_const_17 f4 [10, 64]
0	0xbf0f4911	-0.55970865
1	0xbe83b4c8	-0.25723863
2	0x3e91e7a7	0.2849705
3	0xbddebd8b	-0.10875996
4	0xbe0cace8	-0.13737833
5	0x3cd933f8	0.026514038
6	0x3e33c7ce	0.17556688
7	0xbf251ee3	-0.64500254
8	0xbf1215a9	-0.570643
9	0x3e46ef8a	0.19427314
10	0xbdd724cd	-0.10505066
11	0x3e93a0b4	0.28833544
12	0x3e908493	0.28226146
13	0xbd89d73f	-0.06730508
14	0xbf2d76bb	-0.67759293
15	0x3ede6042	0.43432814
16	0x3d99a1ad	0.0750154
17	0xbe114855	-0.14187749
18	0xbeb3d9d4	-0.35127127
19	0xbe5bb8bd	-0.21457191
20	0xbf0afc53	-0.54291266
21	0x3e3553f4	0.17707807
22	0x3d7eba77	0.062189545
23	0xbdace683	-0.08442404
24	0xbe7ee1e9	-0.24890865
25	0x3e8046f1	0.25054124
26	0xbb7f4974	-0.0038953694
27	0x3e34fd64	0.17674786
28	0x3da297c5	0.07939104
29	0x3e453856	0.19259772
30	0xbefe292a	-0.4964078
31	0xbe32f41a	-0.1747593
32	0xbd9cf078	-0.07663053
33	0x3ec7fea5	0.39061466
34	0xbedf572d	-0.43621197
35	0x3ea3c857	0.31988785
36	0xbe4690f7	-0.19391237
37	0xbe9481c0	-0.2900524
38	0xbe170ecc	-0.14751738
39	0x3e98e3af	0.2986121
40	0xbecd064f	-0.40043876
41	0xbe8ff461	-0.28116134
42	0xbe882fc3	-0.2659894
43	0xbe3a4035	-0.18188556
44	0xbb2c2fee	-0.0026273686
45	0x3e830ca6	0.25595587
46	0xbe2ab8f1	-0.16672112
47	0xbf563c53	-0.836858
48	0xbe1ef425	-0.15522821
49	0xbeec57a0	-0.46160603
50	0xbd90f467	-0.07077866
51	0x3deb29c8	0.114825785
52	0xbd26f517	-0.04076108
53	0x3ebb7621	0.36613563
54	0xbeeb1b29	-0.4591916
55	0x3e7a79d8	0.24460542
56	0x3dc2fa77	0.09520429
57	0xbf14e626	-0.5816368
58	0x3eb88e03	0.36045846
59	0xbe298635	-0.16555102
60	0x3cecfeaf	0.028930036
61	0xbe7500d3	-0.23926096
62	0x3eae5f4d	0.34057084
63	0xbe119b4b	-0.14219396
64	0x3e8bc7e3	0.2730094
65	0x3e0c0905	0.13675316
66	0xbed7059f	-0.41996476
67	0x3e9cc706	0.30620593
68	0xbe3c2dd9	-0.18376864
69	0xbe843e18	-0.25828624
70	0xbe9d1409	-0.30679348
71	0x3e5f143c	0.21785063
72	0x3eb276c9	0.3485625
73	0x3e47fbd3	0.19529657
74	0xbe9d7b38	-0.3075807
75	0x3e81e599	0.25370482
76	0x3e1bfee5	0.15233953
77	0x3ed415cd	0.41422883
78	0xbe6c0bf1	-0.2305143
79	0x3e8287c6	0.25494212
80	0xba8f9eb4	-0.0010957331
81	0x3d630d9a	0.055432893
82	0xbea6a8c0	-0.3255062
83	0xbeaacb92	-0.33358437
84	0x3ad17a4a	0.001598188
85	0xbdee14ea	-0.11625083
86	0xbe8ff727	-0.2811825
87	0xbf1ce64e	-0.6128892
88	0x3f04a445	0.51813155
89	0x3d526243	0.05136324
90	0x3ea7202f	0.32641742
91	0xbf0ad702	-0.54234326
92	0x3e4c8999	0.19974364
93	0xbe6e946a	-0.23298803
94	0xbf115a1e	-0.5677813
95	0xbed4cdb7	-0.41563198
96	0x3ebb71d5	0.36610284
97	0xbe9b1578	-0.30289817
98	0x3e4d4d5d	0.20049043
99	0xbe1698ae	-0.1470668
100	0x3d4839ae	0.048883133
101	0xbdaae772	-0.08344926
102	0xbe66800f	-0.22509788
103	0x3ea82293	0.32838878
104	0xbc993872	-0.018703673
105	0x3d5dfe5c	0.054197654
106	0x3e629a58	0.2212919
107	0xbdc3f38a	-0.09567936
108	0x3db30d82	0.08742811
109	0x3dc38951	0.095476754
110	0xbe777887	-0.24167071
111	0x3eadfb82	0.33980948
112	0xbe43b73f	-0.19112872
113	0xbe994202	-0.29933172
114	0xbd7eb24a	-0.06218175
115	0xbe849e51	-0.25902036
116	0xbde48a6f	-0.111592166
117	0xbde1f84f	-0.11033689
118	0xbe5299b5	-0.20566447
119	0xbe11ee04	-0.14250952
120	0x3dbebdec	0.093135685
121	0xbdddb299	-0.108250804
122	0x3e609406	0.21931466
123	0x3dcfac7f	0.10140323
124	0x3e979734	0.29607546
125	0xbd877c95	-0.06615559
126	0xbe8ed380	-0.27895737
127	0xbe8650fe	-0.26233667
128	0x3e9068b0	0.2820487
129	0xbe51f03c	-0.20501798
130	0x3ebf7de8	0.37400746
131	0x3e8e4e94	0.27794325
132	0xbd97f49e	-0.07419704
133	0x3dd9ccc1	0.10634757
134	0xbd5fdc96	-0.054653727
135	0xbc7ef256	-0.015560707
136	0x3d5aace9	0.053387556
137	0x3bcd373f	0.0062626894
138	0x3e1f98ae	0.15585586
139	0xbe7ce07f	-0.24695013
140	0xbea0885b	-0.3135403
141	0xbe7964e6	-0.24354896
142	0xbe4acb91	-0.19804217
143	0x3e6f9d9b	0.23399965
144	0xbe74bb85	-0.23899658
145	0x3ed0f60c	0.4081272
146	0xbe7c8050	-0.24658322
147	0xbedf26e6	-0.43584365
148	0xbecd58cd	-0.40106812
149	0xbe2cd1d1	-0.16876914
150	0x3e9ba331	0.30397943
151	0xbe16f826	-0.14743099
152	0xbe8c0d8f	-0.27354094
153	0x3bd698c4	0.006548973
154	0xbe521a7c	-0.20517915
155	0xbeaeba41	-0.34126475
156	0xbdf81e85	-0.12115196
157	0x3e9fc0bb	0.3120173
158	0xbea02894	-0.3128096
159	0xbee5d379	-0.44887903
160	0x3e152da7	0.14568196
161	0xbf0c24cb	-0.5474364
162	0x3e496a2b	0.19669406
163	0xbe4c2f92	-0.19940022
164	0xbc044fb6	-0.008075645
165	0xbe462f99	-0.19354095
166	0x3e0f9a00	0.1402359
167	0xbf04c0a3	-0.5185644
168	0xbe893f97	-0.26806328
169	0xbe8241c8	-0.25440812
170	0x3e8f69de	0.28010458
171	0xbeac86df	-0.33696648
172	0xbdccdc1b	-0.10002919
173	0xbed39352	-0.41323334
174	0x3e115849	0.14193834
175	0x3dabfa4c	0.0839735
176	0x3d32bbc1	0.043636087
177	0x3d5cbe5b	0.053892475
178	0xbf154039	-0.5830112
179	0x3d919889	0.07109172
180	0x3e4aa541	0.19789602
181	0xbe8556cc	-0.26042783
182	0x3e82687f	0.2547035
183	0x3eb025d3	0.34403858
184	0x3e640bc5	0.22270115
185	0xbdaa2d59	-0.08309431
186	0xbef083c1	-0.4697552
187	0xbebc0061	-0.3671904
188	0xbe221073	-0.15826587
189	0x3e332854	0.17495853
190	0xbeb127b5	-0.34600607
191	0xbe9e9b5c	-0.30977905
192	0x3e91c524	0.2847072
193	0xbec5dc10	-0.38644457
194	0x3e4acbe6	0.19804344
195	0xbe9d4546	-0.30716914
196	0xbe6f02bf	-0.23340891
197	0xbe22d703	-0.15902333
198	0xbedaa45a	-0.42703515
199	0x3e68d655	0.22738011
200	0xbe1d2cb6	-0.15349087
201	0xbd65e91c	-0.056130514
202	0xbec54d1b	-0.3853539
203	0x3d854c8f	0.06508743
204	0xbeb3e059	-0.351321
205	0xbef19fad	-0.47192135
206	0xbe91cc14	-0.28476012
207	0xbe86631e	-0.26247495
208	0x3e759454	0.23982364
209	0xbe704d90	-0.23467088
210	0xbf1cdeed	-0.6127766
211	0xbe41f1ed	-0.18939944
212	0x3e75ca7f	0.24003027
213	0xbcbf781d	-0.023372704
214	0x3ce67896	0.028133672
215	0xbdee12ed	-0.116247036
216	0x3e481c21	0.1954198
217	0xbd18d9c6	-0.03731706
218	0xbf0f66d1	-0.5601626
219	0x3e0dbe6e	0.13842174
220	0x3dc38851	0.09547485
221	0xbe2979b2	-0.1655033
222	0xbe6a5be6	-0.22886619
223	0x3e9a2bf2	0.30111653
224	0xbefad5f7	-0.48991367
225	0xbe8f0305	-0.2793199
226	0x3e2661f2	0.162483
227	0x3e3628b7	0.17788969
228	0x3e1a6e4d	0.15081139
229	0xbd7a4cf9	-0.061108563
230	0x3e9fc52f	0.31205127
231	0xbf015573	-0.5052101
232	0x3edddfd2	0.43334824
233	0xbe4fe9b5	-0.20303996
234	0xbecc5b27	-0.39913294
235	0x3de3558d	0.11100302
236	0xbed0d89e	-0.40790266
237	0x3d1eb529	0.038746987
238	0xbda50b4c	-0.08058795
239	0x3da17894	0.078843266
240	0x3e6aaaa0	0.22916651
241	0x3dd8a071	0.10577477
242	0x3d08666b	0.0333008
243	0x3cf0f1a7	0.029412104
244	0x3ec52a27	0.38508722
245	0x3e613c3b	0.21995632
246	0x3e8ef9f1	0.27925065
247	0x3e6631a3	0.22479872
248	0x3e60a72f	0.21938775
249	0xbda67667	-0.08128052
250	0xbefffbed	-0.49996892
251	0x3e6b6e1c	0.22991222
252	0xbf0cec85	-0.550484
253	0xbdd364ab	-0.10321935
254	0x3e8162bc	0.2527064
255	0xbf085c46	-0.532658

test_const_18 f4 [10]
0	0xbe0aac7c	-0.1354236
1	0xbe3ff47d	-0.18745609
2	0x3d178a19	0.036996935
3	0xbda9c8dd	-0.08290265
4	0x3db25b16	0.087087795
5	0x3c31d50e	0.010854019
6	0xbdd949be	-0.10609768
7	0xbe205da6	-0.15660724
8	0x3e8a19e4	0.26972878
9	0x3de5b22c	0.11215624
